…
||  epsilon_decay                  | 0.9999                               ||
||  epsilon_min                    | 0.01                                 ||
||  dueling                        | True                                 ||
||  target                         | True                                 ||
||  is_noisy                       | True                                 ||
||  seed                           | 42                                   ||
||  DEVICE                         | cuda:1                               ||
----------------------------------------------------------------------------
Using Dueling DQN
DQN(
  (network): Sequential(
    (fc0): Linear(in_features=128, out_features=16, bias=True)
    (relu1): ReLU()
    (fc1): Linear(in_features=16, out_features=16, bias=True)
    (relu2): ReLU()
  )
  (value_stream): Sequential(
    (0): Linear(in_features=16, out_features=12, bias=True)
    (1): ReLU()
    (2): Linear(in_features=12, out_features=1, bias=True)
  )
  (advantage_stream): Sequential(
    (0): Linear(in_features=16, out_features=12, bias=True)
    (1): ReLU()
    (2): NoisyLinear()
  )
)
Using Dueling DQN
DQN(
  (network): Sequential(
    (fc0): Linear(in_features=128, out_features=16, bias=True)
    (relu1): ReLU()
    (fc1): Linear(in_features=16, out_features=16, bias=True)
    (relu2): ReLU()
  )
  (value_stream): Sequential(
    (0): Linear(in_features=16, out_features=12, bias=True)
    (1): ReLU()
    (2): Linear(in_features=12, out_features=1, bias=True)
  )
  (advantage_stream): Sequential(
    (0): Linear(in_features=16, out_features=12, bias=True)
    (1): ReLU()
    (2): NoisyLinear()
  )
)
  0%|          | 0/2000 [00:00<?, ?it/s]
  0%|          | 0/2000 [00:00<?, ?it/s][A2024-04-25 17:50:51.123 | INFO     | train:train_dqn:36 - [ --- Episode: 0, Reward: 200.0, Epsilon: 0.92 --- ]
  0%|          | 1/2000 [00:17<9:35:40, 17.28s/it]2024-04-25 17:50:53.709 | INFO     | train:train_dqn:36 - [ --- Episode: 0, Reward: 4240.0, Epsilon: 0.90 --- ]
…
||  epsilon_min                    | 0.01                                 ||
||  dueling                        | True                                 ||
||  target                         | True                                 ||
||  is_noisy                       | True                                 ||
||  seed                           | 42                                   ||
||  DEVICE                         | cuda:1                               ||
----------------------------------------------------------------------------
ALE/YarsRevenge-ram-v5 å®Œæˆæ— é”™è¯¯ã€‚
Using Dueling DQN
DQN(
  (network): Sequential(
    (fc0): Linear(in_features=128, out_features=16, bias=True)
    (relu1): ReLU()
    (fc1): Linear(in_features=16, out_features=16, bias=True)
    (relu2): ReLU()
  )
  (value_stream): Sequential(
    (0): Linear(in_features=16, out_features=12, bias=True)
    (1): ReLU()
    (2): Linear(in_features=12, out_features=1, bias=True)
  )
  (advantage_stream): Sequential(
    (0): Linear(in_features=16, out_features=12, bias=True)
    (1): ReLU()
    (2): NoisyLinear()
  )
)

  0%|          | 0/2000 [00:00<?, ?it/s][A 38%|â–ˆâ–ˆâ–ˆâ–Š      | 753/2000 [3:40:16<6:23:35, 18.46s/it]2024-04-25 21:31:06.399 | INFO     | train:train_dqn:36 - [ --- Episode: 753, Reward: 0.0, Epsilon: 0.01 --- ]
 38%|â–ˆâ–ˆâ–ˆâ–Š      | 754/2000 [3:40:32<6:05:47, 17.61s/it]2024-04-25 21:31:18.685 | INFO     | train:train_dqn:36 - [ --- Episode: 0, Reward: 1.0, Epsilon: 0.85 --- ]
…
